Version_3_artifacts/Version_3_models/Version_3_model_multi_step.tflite (tflite, 190680 bytes, 15 tensors)

arith.constant f4 [24, 32]
00000000: 8689 75bb 11af 8b3c 30e1 423c a1fe f739
00000010: 4b69 af3c 99f7 bb3c e5ba a0bc 1e41 2cbc
00000020: 74a2 85bb c78e c53c 4956 113c c26e 22bb
00000030: 8605 27bd d773 92bc 687e eb3c 5d3b 503c
00000040: d18b 9cbb cc5d 643b cfdb b43b 3eec 9bbb
00000050: 935f 053d aea7 bd3c 774f ca3a c2a2 863a
00000060: 0932 ff3b b041 1cbc 7ad5 78be a8ac 7e3d
00000070: a57e 6f3b 0571 37bb 14ee 743c 6bf5 f7bb
00000080: 6308 4a3c dd0c 08bc 5735 e3bc 6566 b9bc
00000090: d6db 993d b791 053d 66e6 69bc 5bc9 973c
000000a0: 12a7 4cbb 9bc6 e9ba e4bd 05bd 044e 11bb
000000b0: 6f91 4cbc 81ff d63c 8ccf d5bb 45a3 d7bc
000000c0: 65ec 0e3c 38bc 3c3c 4dd7 8ab9 32cc 3c3c
000000d0: 1474 af3d 49b0 9dbc 801c e13b 150a 9c3c
000000e0: e365 63bc 525b 22bd 3ff9 d03e 5cc7 e1bc
000000f0: 0af2 843c 74d0 813b 854e 07bd d99d 693c
00000100: a5f6 42b9 7631 28bc 26f5 503a 5bda 1c3d
00000110: b008 7fbf a0e8 91bc b9db 29bb 45ac 363c
00000120: 8322 673c ffb5 423d 105b e53b e52f 773c
00000130: dc85 563c 0219 90bc b5bf 8d39 7a10 99bb
00000140: c878 d5bb 4dcd 603a 640f 05bc a1ff 06bc
00000150: 3136 b1be 636c 473c 652f 9e3c 3fe5 cbbb
00000160: 4e9a f43b b0fa 4b3c 0c99 9a3f a1e9 173d
00000170: fd5c 84bc ea6b 1e3c 736c 9f3c 818f 163d
00000180: 65fd d6ba f607 26bc 9aa9 dd3a 8177 3b3d
00000190: 0838 80bf 6115 a4bc badb 56bb e6fa 233c
000001a0: 0cd0 9a3c 3141 663d b310 f53b 20c5 aa3c
000001b0: efb0 5e3c 49d5 94bc c58d 803a cc7e 9dbb
000001c0: 14e9 c7bb 02a8 383a 5917 2abc a307 34bc
000001d0: fb3a c2be 4a54 813c c198 733c b785 eebb
000001e0: 555e 213c 6f2c 713c 0c30 8a3f 4bda b33d
000001f0: 45de 88bc ccbd 4c3c 4211 a33c 02ba 473d
00000200: 44ae b1ba 2bca a43c 84a5 9d3b 2f89 af3c
00000210: 27d9 383d 776b 05bc 1d19 a7bc 877e e8bb
00000220: 7387 3fbc 17f0 0fbc 5d95 05bc 2cc4 8abb
00000230: 97f9 59bc 096d 253c 7ea7 bbbc f46e 89ba
00000240: 853f 04bc 3cd6 81bc 749c 85bb b2a7 e3bb
00000250: cc05 ee3d f494 4c3c e4e3 8a3b 6729 91b9
00000260: 417f d63c a53a d7bc 2d7f a23c d498 b3bd
00000270: 230b 33bb bb20 ecba 137f 093c 6d56 503b
00000280: 4ad4 773c acee 49bc 1f17 e5ba 96a4 1f3c
00000290: 2cf9 37bd 4be5 bebc 6e11 61bc 0367 cf3c
000002a0: 9d0a 35bc 0c0e 7a3b 345e d03c 58bd ffba
000002b0: 9008 7c3c 94ed 92bb 6a54 9e3c 95c6 6cbc
000002c0: 0681 223c dd1c 103d 3346 7b3b 0406 403c
000002d0: 0d4d 323e b2e8 213a d1a6 6f3a 774a 46bb
000002e0: 45bf 36bc 28ff 303c 0d7e 27bd b769 e03d
000002f0: de65 4d3a 4712 b03b 0ecd 88bc b48e dbbb
00000300: 4863 c039 170f 37bc 8613 1cbb 9f78 20bd
00000310: e23d 9f3e a467 423c b05b 32bb 3256 263c
00000320: e00e 8c3c ad76 9e3b 04bf e03a dede bf3c
00000330: 7932 d0bb 08e3 05bb a5bc 18bc 426d c23b
00000340: 0478 e7bb b385 a63b 101e 0dbc 866e 39bc
00000350: f127 183d 0b0c f73a 34c5 a63c d31a ab37
00000360: b4fd b53b 763a 40bb 8e30 343f 2901 20bf
00000370: a2b5 c6bb a30d 893c 7c63 753c be07 c33b
00000380: 4efa 52ba a595 1dbc 2dee cfba ba80 26bd
00000390: 0c6f c53e 19df 543c baf7 1bbb 44ad 0f3c
000003a0: 319a a53c b679 953b 6c0d 9f3a b324 003d
000003b0: d6a6 f7bb c7ec 1fba a233 3bbc cf7b e93b
000003c0: 03e6 e0bb 7f61 b83b 0b63 2dbc 0e06 67bc
000003d0: 684b bdbc 137a 283b 7d7f 843c 18b7 c5b9
000003e0: d7d2 f83b f9be 85bb 65ab 223f c22a 27bf
000003f0: 00c4 bdbb 1548 bb3c 8017 6d3c 323d 333c
-0.0037466004 0.017051252 0.011894509 0.00047301225 0.021412512 0.022945212 -0.019620368 -0.010513572
-0.004078204 0.024115933 0.00887067 -0.0024785255 -0.040776752 -0.017877502 0.028746799 0.012709466
-0.0047774096 0.0034845946 0.0055193673 -0.004758387 0.03256185 0.023151245 0.0015435059 0.0010271894
0.007787947 -0.0095371455 -0.24300185 0.062176377 0.0036543992 -0.002799095 0.01494934 -0.007567098
0.012331101 -0.008303848 -0.027735395 -0.022631833 0.075126335 0.032609668 -0.014276123 0.018528631
-0.0031227511 -0.0017835678 -0.032651797 -0.0022171745 -0.012485846 0.02624488 -0.0065249857 -0.02632297
0.008723353 0.011519484 -0.00026481823 0.011523293 0.08567062 -0.019249098 0.0068698525 0.019047776
-0.013879272 -0.03963787 0.4081516 -0.027560882 0.016228694 0.003961617 -0.033033866 0.014258825
-0.00018593164 -0.010265699 0.00079711 0.038294178 -0.9962263 -0.01781112 -0.0025918318 0.011149471
0.014107349 0.047536846 0.006999381 0.015087103 0.013093438 -0.01759005 0.0002703645 -0.0046711536
-0.0065146424 0.0008575514 -0.008121345 -0.008239658 -0.34611657 0.0121718375 0.019309709 -0.0062223966
0.0074646836 0.012449905 1.2077956 0.03708804 -0.016157622 0.009669283 0.019460892 0.03675795
-0.0016402422 -0.010133734 0.0016911507 0.045768265 -1.0017099 -0.020029726 -0.0032784776 0.010008549
0.018898033 0.056214515 0.0074787973 0.02084595 0.013591989 -0.018168109 0.0009807876 -0.004806375
-0.006100783 0.0007044078 -0.010381543 -0.010988149 -0.37935624 0.015787262 0.014867962 -0.0072791236
0.009849151 0.014720066 1.0795913 0.087818705 -0.016707549 0.012496423 0.01990569 0.048761375
-0.0013555964 0.020115932 0.0048109908 0.021427719 0.045128968 -0.008143297 -0.020397717 -0.0070951614
-0.011690008 -0.008785269 -0.008153287 -0.0042348113 -0.013304136 0.010096797 -0.022907015 -0.0010485337
-0.008071785 -0.015849225 -0.0040774886 -0.006947481 0.116221994 0.012486685 0.0042385925 -0.00027687402
0.026183726 -0.026273081 0.019836033 -0.08769384 -0.002731987 -0.0018015126 0.008392113 0.0031789795
0.015126297 -0.01232497 -0.0017478204 0.00974383 -0.044915363 -0.023302695 -0.013737066 0.025317675
-0.011049894 0.0038155345 0.025435545 -0.0019511385 0.015382901 -0.004483888 0.019327361 -0.0144516425
0.009918457 0.035183776 0.0038341403 0.011720184 0.17412205 0.0006176337 0.0009141984 -0.0030256787
-0.011154001 0.0108030215 -0.040891696 0.109576635 0.0007835309 0.0053732726 -0.01669934 -0.006700361
0.00036695064 -0.011173031 -0.0023815348 -0.039177533 0.311019 0.01186553 -0.0027215295 0.0101523865
0.017096937 0.0048359246 0.0017146771 0.023421701 -0.006353673 -0.002042951 -0.00932232 0.0059334347
-0.0070638675 0.005081856 -0.0086131245 -0.011317855 0.037147466 0.0018848194 0.020357706 2.039728e-05
0.0055539254 -0.002933172 0.7038659 -0.6250177 -0.006064133 0.016730135 0.014977332 0.0059518507
-0.00080481626 -0.009618198 -0.0015863829 -0.040650107 0.38561285 0.012992644 -0.002379878 0.008769337
0.020215126 0.004561628 0.0012134737 0.031285 -0.00755773 -0.0006100651 -0.011425884 0.007125355
-0.006863357 0.005626857 -0.010582696 -0.014100565 -0.023107246 0.0025707528 0.016174072 -0.00037711184
0.0075934934 -0.0040816036 0.6354278 -0.6529962 -0.0057911873 0.02286152 0.014470935 0.010939883

arith.constant1 f4 [24]
00000000: 29c3 393f 2a26 183f 72d0 863e 1e6c a83e
00000010: 43a5 393f 1326 1b3f 8cf2 843e da52 a63e
00000020: a71d 3b3f 4f96 1a3f 9525 833e 8a60 a43e
00000030: bea0 3a3f 5d6a 193f 6d27 873e 96a3 a83e
00000040: 82f2 3a3f 5351 1c3f 7e6a 823e 3993 a33e
00000050: 7f16 3b3f 252a 193f e599 853e ee08 a73e
0.72563416 0.59433234 0.26330906 0.32894987 0.72517794 0.6060497 0.259663 0.32485086
0.7309212 0.603856 0.2561461 0.32104903 0.72901523 0.5992792 0.26397267 0.32937306
0.7302629 0.6106159 0.25471872 0.3194826 0.730812 0.5982993 0.26093975 0.32624

arith.constant5 f4 [64]
00000000: 39ed 5a3d 6cfd 543d 7565 e1bd f849 0d3d
00000010: a250 cabd 30ba 4cbd 2404 cc3e b4c1 c7bd
00000020: 4c3f 053d 4648 c3bd 8e65 90bd a377 063f
00000030: aca2 363e 6899 3fbc f06f a43d 643b 763e
00000040: c072 9a3c 4cac e1be fea6 debd 9d54 d23d
00000050: 68bf 2ebd 2e45 d63d a30f d5bc 897f d93d
00000060: 2037 623c 801f b63e 60fa 30bd 00a9 fbbb
00000070: b1bd 5c3e 54be 91bb e952 a73e 25e5 bbbe
00000080: 08a2 423d 8657 f83d e731 5ebe 2c59 073d
00000090: 5cba ca3e 9856 f33c c846 00be b652 80be
000000a0: b0ca bdbd 8cd0 60bd d269 21be 50b3 f43c
000000b0: f233 00be 22a6 22bc 65e2 193d 343b eb3c
000000c0: ae3d 143e ab81 e7be 2ee9 b0bd 3a7e 36bf
000000d0: 30f6 77bd 6b40 0cbf edd8 12be c7c0 b83d
000000e0: c71f 743d e4f7 453e 94f9 303e e43f eb3d
000000f0: 6a4e 163e 9b58 dc3e cf68 af3d 676c e2bd
0.05344889 0.051999494 -0.110056795 0.03449437 -0.09878661 -0.04998225 0.3984691 -0.09753743
0.032531068 -0.095352694 -0.0705062 0.525263 0.17835492 -0.01169429 0.08029163 0.24046093
0.018853545 -0.44076765 -0.10871695 0.10270045 -0.042663008 0.10462414 -0.026008433 0.106200285
0.013807088 0.35570908 -0.043207526 -0.0076800585 0.21556737 -0.0044477377 0.32680443 -0.3669826
0.047517806 0.12126069 -0.21698724 0.033044025 0.39595306 0.029704377 -0.12527001 -0.25063103
-0.09267175 -0.054886386 -0.15763023 0.02987066 -0.12519816 -0.009927304 0.037569422 0.028714754
0.14476654 -0.45216116 -0.086382255 -0.71286356 -0.060537517 -0.54785794 -0.14340563 0.09021144
0.059600618 0.19332844 0.17282706 0.114867955 0.1467835 0.4303635 0.085649125 -0.11055832

arith.constant6 f4 [64]
00000000: c1a4 2e3f 1462 4b3f a4b1 c93f f067 873f
00000010: 0740 973f 15b1 693f 6737 b13f 93a9 3f3f
00000020: 5860 d53f 2d8c 3d3f d44c bf3f 92a9 a63f
00000030: 3a41 033f 8484 613f 6e38 bc3e c53b f03e
00000040: 4870 9e3f 73c6 d73f 9902 aa3f 134f 633f
00000050: 43cb 9c3f 87f0 8f3f 620a 403f 3b9b 593f
00000060: 8681 c03f af07 703f 6c0f c73f 3d2f c73f
00000070: 6072 443f c6c6 063f 4a3a 123f d897 853f
00000080: 79c3 a33f 8792 9d3f b7c5 873f dd6d 243f
00000090: 6997 963f d5c9 493f 584a 5d3f b878 7d3f
000000a0: 22e5 b53f c10d c73f 8875 d23e 73ad 983f
000000b0: 187c 2d3f 60cd a03f dc0c 683f 9644 e43f
000000c0: 06f5 7d3f 8c82 843f fd74 c13f bc9f 913f
000000d0: 8adb 953f 8b0c 0340 c3cd 863f 7320 783f
000000e0: 84a0 873e 46f9 513f 90a7 293f e309 8b3f
000000f0: bb67 873f 49bb cc3f f1b3 163f 0147 bd3f
0.68220145 0.7944653 1.5757337 1.0578594 1.1816415 0.9128583 1.3845032 0.74868125
1.6670027 0.74042016 1.4945321 1.3020499 0.512714 0.8809283 0.36761802 0.469206
1.2378016 1.6857437 1.3282043 0.8879253 1.224953 1.1245278 0.7501584 0.8500249
1.5039527 0.93761724 1.5551581 1.5561291 0.7673702 0.52647054 0.5712019 1.0436964
1.2794029 1.2310342 1.0607213 0.6423014 1.1764957 0.78823596 0.86441565 0.9901233
1.4210551 1.5551072 0.41105294 1.1927933 0.6776748 1.2562675 0.9064462 1.7833431
0.99202 1.035234 1.5113827 1.1376872 1.1707623 2.0476406 1.0531543 0.96924514
0.2648965 0.82020986 0.66271305 1.0862392 1.0578531 1.5994655 0.5886832 1.4787294

arith.constant7 f4 [128]
00000000: 45b0 253d 488a 02be ee05 66be 05e9 c23e
00000010: 63bf 40be 07d2 a63d 90fe 6d3c 3a02 0abe
00000020: 86c7 bf3d 4069 1abb 71f0 37be 4ed9 133d
00000030: 9769 93be d33e d9bd ea1c cd3d c0ea 8a3c
00000040: dc0f 72be 83d4 033d 716d d63d cad5 03be
00000050: 1284 353e 8ecd 86bd ad25 8dbd c0d4 b5bd
00000060: b401 06be 684f 24be 758a 893d 01ce 363e
00000070: 97bd 783e a1e2 943d 070c 2c3e 8edd 0dbe
00000080: f3eb d9bd 6bf9 8e3d 428c 82be 25a9 aebd
00000090: 3b7d fdbb 8b84 94bd 6c48 bf3d d058 b23e
000000a0: 9039 2e3e 0a00 063c caae 053e 0ae1 133d
000000b0: bce9 063e d013 733d 805a 1dbd 6293 3c3d
000000c0: 7c37 2b3e 063b 07be ce39 af3d 8c14 4e3e
000000d0: 292c e63d 9406 f0bd 7d22 77be 851a 233e
000000e0: f87b d1bb 3be8 f7bd 60ef 9c3d 925b 8fbd
000000f0: b0b9 2e3e 7ae8 2ebd 8be9 bb3d f051 3d3e
00000100: 7757 303d cba9 073d 6361 823d f78d fd3d
00000110: a6b1 3a3d a416 dc3d 2425 f03d 8925 30be
00000120: 3f96 eb3d 6c73 d63e 66b1 49be 189d f73d
00000130: ba8c c73d b3bb c03d 7c73 0fbe 8b4c cfbc
00000140: 5c3c a13e 7ec3 27be 65c5 22bd b233 a6bc
00000150: 222b febd a0de 7b3d aed1 213d 0271 85be
00000160: 19ab 5ebd e807 7cbd f4ad 323d 84b7 1ebe
00000170: 0884 6cbe be8d 693c 8827 6fbe 90e3 1f3c
00000180: 791c 88be 7851 9c3d b0eb fa39 4af7 e3bd
00000190: f801 bd3e 869c 85bc 183b 163d f437 6dbd
000001a0: 649b ba3d ce59 89bd 3553 a63d 267c 113e
000001b0: 6a4a f4bd c044 c83c 3033 763c 1caf cabd
000001c0: f58c 003e 7106 893d c225 acbe 90bb 7dbc
000001d0: 80fa a1bd 0d16 0dbe 9a3e 753d be96 d5bd
000001e0: 2a27 e5bc c676 ec3d aa02 33bd 170b be3d
000001f0: 8264 64bd 60f6 f53c 220c 2bbd 0bb4 2ebe
0.040451307 -0.12748063 -0.224632 0.38068405 -0.18823008 0.08145528 0.014526024 -0.13477412
0.09364228 -0.002356127 -0.17962815 0.03609591 -0.28791496 -0.10607686 0.100152805 0.01695764
-0.23638862 0.03218509 0.10470093 -0.12874523 0.17726162 -0.06582175 -0.06891952 -0.088784695
-0.13086587 -0.16045916 0.06715862 0.17852022 0.24291073 0.072697885 0.16801463 -0.13854048
-0.10640707 0.069811665 -0.25497633 -0.085283555 -0.007735876 -0.07251843 0.09339985 0.34833384
0.17014146 0.00817872 0.13054958 0.036103286 0.131751 0.059345067 -0.038416386 0.046038993
0.16720384 -0.1320611 0.08555947 0.20125026 0.11238892 -0.11720005 -0.2413425 0.15928085
-0.006392952 -0.12104841 0.07662845 -0.069998875 0.17063022 -0.042702176 0.09175404 0.18488288
0.043052163 0.03312091 0.06366231 0.12380593 0.045579575 0.10746506 0.11725834 -0.17201819
0.115032665 0.41884935 -0.19696578 0.1209051 0.09743638 0.09410801 -0.14008898 -0.025305053
0.31491363 -0.16383168 -0.03973903 -0.020288322 -0.12410571 0.06149161 0.039506607 -0.2606278
-0.05436239 -0.061530977 0.043622926 -0.15499693 -0.23097241 0.014254985 -0.23354924 0.009758845
-0.26584223 0.076327264 0.00047859317 -0.11131151 0.36915565 -0.016309988 0.03667745 -0.05791469
0.0911167 -0.06706582 0.08121339 0.14207515 -0.11928256 0.024446845 0.0150268525 -0.09896681
0.12553771 0.06690682 -0.33622557 -0.015486613 -0.07909107 -0.13777943 0.059874155 -0.104291424
-0.027972776 0.11546092 -0.043703713 0.09279459 -0.055759914 0.030024707 -0.041759618 -0.17060868

arith.constant8 f4 [128]
00000000: 4a74 0e42 3d16 f841 ac8e ec41 2888 9841
00000010: deb4 c441 ba2d 0342 f1ed eb41 c94e 8f41
00000020: 8097 0042 422a 0642 fe86 0442 22cf e741
00000030: c80e 0a41 71f5 0642 e0f0 f041 5f23 e241
00000040: 0c6d 0242 c4da f841 ca99 c741 4506 0642
00000050: f5b9 0242 736f f941 5623 0942 3a21 6d41
00000060: 9fcf e341 9a5c e641 556a f941 6384 fb41
00000070: 65ef f141 6be3 ea41 1346 0f42 53fc cd41
00000080: cd7f e041 0b3c ea41 bdff a941 f7f6 d541
00000090: 06f1 fd41 106d 9e41 fd8d ec41 6c57 0642
000000a0: 7aef f241 aad2 0442 a1f4 0342 4dfa 0a42
000000b0: b154 f641 7bcf e041 0bb6 e041 71df b841
000000c0: c4e9 a141 3d58 0a42 8ac0 eb41 3d0a e241
000000d0: e31c f841 1097 0542 cd9b f841 24f9 ec41
000000e0: ec84 ff41 29aa e141 872d cf41 7e31 c841
000000f0: a941 0342 8959 b641 cba4 ce41 137e fe41
00000100: 588e f341 0802 0b42 67b0 e041 b441 ae41
00000110: a88e 07be 3f11 ec41 1bc0 f841 d3dc f341
00000120: aca2 ee41 05f9 aa41 d54d f341 5e33 0042
00000130: 15fd 0342 1270 0142 2847 0642 33a6 debd
00000140: e743 ce41 2e7e 0242 9fae db41 762a b741
00000150: 88ea 0a42 34d4 d441 2c82 0142 1466 ec41
00000160: b059 e841 fc52 f341 fc55 ec41 2a0d b041
00000170: 2ad7 0242 1103 ec41 24c3 0042 42db ca41
00000180: 2247 dd41 8578 0142 8756 cd41 b9b7 e841
00000190: 773d cb41 41bf e541 e5a7 bb41 21bf f041
000001a0: 43df 9d41 4100 ce41 5bf5 f741 da1a d341
000001b0: 38ef fe41 ddc9 9a40 e05f 0742 02a0 e041
000001c0: d8ea ea41 e226 b341 0dcd 0942 3b33 a641
000001d0: e7b8 fe41 3625 0042 0970 e541 6ffb d241
000001e0: 5d0b 1042 2409 0642 05ab 9f41 29d8 e141
000001f0: b797 f941 9e75 e241 aa37 d341 abce 0342
35.613564 31.010859 29.569664 19.066483 24.588314 32.794655 29.491182 17.91347
32.14795 33.541267 33.13183 28.97614 8.628609 33.73969 30.117615 28.267271
32.60649 31.10682 24.950092 33.506123 32.6816 31.179419 34.284508 14.820612
28.476377 28.795216 31.17692 31.439642 30.241892 29.361044 35.81843 25.748205
28.062403 29.279318 21.249872 26.745588 31.742687 19.803253 29.56933 33.585373
30.366932 33.205727 32.988895 34.744434 30.791353 28.101309 28.088888 23.109102
20.239143 34.58617 29.469013 28.255 31.014105 33.397522 31.076075 29.62165
31.939903 28.208086 25.89723 25.024166 32.81412 22.793718 25.830465 31.81156
30.444504 34.751984 28.086134 21.782082 -0.13238013 29.50842 31.093801 30.482824
29.82943 21.371592 30.413004 32.050163 32.99715 32.359444 33.56949 -0.10871544
25.783155 32.623222 27.460264 22.895733 34.729034 26.603615 32.37712 29.549843
29.043793 30.41552 29.541985 22.006428 32.71012 29.501497 32.190567 25.35706
27.659733 32.367695 25.66725 29.089708 25.405012 28.718386 23.45698 30.093325
19.734015 25.750124 30.994802 26.388111 31.866806 4.8371415 33.843628 28.078129
29.36467 22.393986 34.450245 20.775015 31.840284 32.03634 28.679705 26.37277
36.011097 33.508926 19.958506 28.230547 31.19908 28.30743 26.40218 32.951824

arith.constant24 f4 [512]
00000000: 0d70 adbe e56a e4be f313 0cbe ae48 37be
00000010: 3bfb b3bd c277 b0be 10aa c7be e92a 16bf
00000020: 2993 c1be d4df c1be 1193 64be b6d4 dbbe
00000030: 146b 9dbe 5d5e a3be 6822 fcbe 7793 d5be
00000040: 2fb1 a7be d8ab d7be eec7 5abe 2a51 97be
00000050: 1101 44be 84ae 79be 8c31 e0be 7c3d 80bc
00000060: 6da8 f3be 65b9 14bf c00c d0be 59c8 55be
00000070: 5e72 a3be 700d dbbe cc5c b8be 641a 1ebf
00000080: 6de9 483e 497c efbe 38e8 bfbe 5c3a e8be
00000090: 3185 b0be 2bdc 193d d6d5 bfbe 9b4d 8ebe
000000a0: 7167 e7be f26c e0be 183b b0be b4af 87be
000000b0: ee0d c4be 5b92 3fbe 4662 d0bd fe8b e03e
000000c0: 713b 37be 2d9b cebe d075 d6be 7235 c3be
000000d0: 379f c0be bbdf fbbe 9152 b5be 2a6c 0bbd
000000e0: cc31 e2be 7de8 10bf 1671 b9be 1cbc 0cbf
000000f0: bad9 19be b2ae 2dbd d124 dabe 56a6 e3be
00000100: dee9 78be 8457 a0be 105d 18bf ef22 7fbe
00000110: abe6 5bbe 99ef abbe 989c debe 1886 01bf
00000120: 5e88 03bf 87dc 81be 8aac c3be 0a63 a2be
00000130: 74ca c0be fc28 dfbe 0e33 bebe 18c1 23be
00000140: b51c 79be 23ce b4be aa5d c3be 0b2e 13bf
00000150: 75d3 87be 68c9 eebe 0c36 6fbe 9904 f3be
00000160: 5612 dbbe 73c8 a3be d7e0 9dbe 65ae 95be
00000170: 9cc9 b0be 7488 b2be 7d3c a0be b69d 19bf
00000180: b32c adbe afa1 b2be 716d 4fbe 4649 95be
00000190: 1a11 513d 8a73 92be 90fa 4abc 5fb0 a8be
000001a0: 685b 51be 516f 21bf 5686 f4be 297c b6be
000001b0: 0047 9bbe 2ecc d4be e86b 7bbe fbf2 e2be
000001c0: 5606 efbe 8fa7 17be 0f6e dabd bcd4 adbc
000001d0: 14c9 a8be ad17 8abe 8ac6 83be 1952 afbe
000001e0: 0c57 9ebe 6530 c4be 54af 7bbe ea5b 0ebf
000001f0: fdc6 d6be a7c8 d7be 9626 0fbf 778e 84be
00000200: 874b af3e e9d3 ce3e bdf2 433e 4083 253f
00000210: f328 513e 565a 4c3f ae57 fd3e e525 613f
00000220: 6e43 413f da4b db3e 17ad c23e b70f 3b3f
00000230: 0832 9d3f 747e 2c3e 6d0e 0d3f 46e2 ec3e
00000240: 2418 6b3e 242d 0e3f 1379 5a3e d359 053e
00000250: ce04 b63d 597a 643c ace7 203f 856a 103d
00000260: 2428 de3e d55b 3c3f 9632 2b3e 9ae6 5e3e
00000270: 094c ac3e f74b 083f 0983 183f 9fac 153f
00000280: 3187 543d bf89 1c3f f5b7 5a3f 83e5 7f3e
00000290: 1f44 a03e 1189 6c3e 22d9 b83e 07c5 dc3e
000002a0: 68e3 463f 99b3 173f e964 bc3e a783 d63c
000002b0: 1d67 8c3e cdfb 8e3e ae8e 1c3e a7ee db3e
000002c0: e025 7a3e 3173 333f 4e6e 7a3e 7c69 4a3f
000002d0: 4daa 753e 1dc4 0b3f 3d8d 4a3f a21a ad3d
000002e0: 94cb 273f 22f7 bb3e ffdc 063f fffe 0f3f
000002f0: 1e83 b23e ecb4 833e 8386 c23e 4f80 a33e
00000300: cb97 8e3e d647 ee3e 284b 003f cdb1 c43d
00000310: 7e9f b83f 4507 e73e e20b b53e 8615 153f
00000320: a774 ca3e 0c19 153f 471e 193f 08c3 0d3f
00000330: b16c ee3e 19d5 043f 1889 9a3e dfb7 a13f
00000340: 7720 6e3e 7bc8 ca3e 7dfe 043f 85fc 253f
00000350: c5e3 253f b7e8 153f 3ae9 3a3e b83d 243f
00000360: 9d3d 4c3e c466 b63e 963c a13d c9cf 8c3e
00000370: 7190 af3e 532a 053f a7de 093f 2863 143f
00000380: ebd1 113f 53c4 e73e c998 0e3e 14f2 d23e
00000390: 8d85 493e 2dab ca3d f661 303e 6d0b 3e3e
000003a0: a22b 023f 9910 e13e c8c1 af3e 24a6 103f
000003b0: 6caf f03e 1859 7c3f cb2a d73e 8527 263f
000003c0: 1a7c 2b3f ed12 033f 4bed 3f3e afe2 ae3e
000003d0: 4c12 993e b9c0 2d3e 9e0e c03e e19d 1f3f
000003e0: de33 513e 8385 fd3e cc65 963e 90f4 f23e
000003f0: fbcb 023f f8f4 9e3e ba64 9e3e 32e7 903e
-0.3387455 -0.44612804 -0.13679485 -0.17898819 -0.08788153 -0.34466368 -0.38996935 -0.58659226
-0.37807587 -0.3786608 -0.22321726 -0.42935723 -0.30745757 -0.3190793 -0.49245 -0.4171407
-0.32752368 -0.42123294 -0.2136533 -0.2955411 -0.19141032 -0.24382979 -0.437878 -0.015654318
-0.47589436 -0.5809539 -0.40634727 -0.20877208 -0.31923193 -0.4278369 -0.36008298 -0.6175902
0.19620295 -0.4677451 -0.37481856 -0.45357025 -0.34476617 0.037563484 -0.3746783 -0.27793583
-0.45196107 -0.4383312 -0.34420085 -0.26501238 -0.38291878 -0.18708174 -0.10174994 0.43856806
-0.17893769 -0.40352765 -0.4188676 -0.38126713 -0.3762147 -0.4919413 -0.35414556 -0.0340387
-0.44178617 -0.5660475 -0.3621909 -0.5497453 -0.15024462 -0.04240293 -0.42606214 -0.44462842
-0.24307963 -0.3131677 -0.59517 -0.2491567 -0.21474712 -0.33581236 -0.43478847 -0.50595236
-0.51379955 -0.25363562 -0.38217574 -0.31716186 -0.3765446 -0.43585956 -0.37148327 -0.15991628
-0.24327357 -0.3531352 -0.38157398 -0.5749213 -0.26528516 -0.46638036 -0.23360461 -0.47464445
-0.42787427 -0.31988868 -0.30835602 -0.29234615 -0.34528816 -0.3486973 -0.3129615 -0.6000627
-0.33823165 -0.3488898 -0.20256592 -0.29157466 0.0510417 -0.28603774 -0.01238884 -0.3294706
-0.20445025 -0.6306048 -0.4775874 -0.35641602 -0.30327606 -0.41562027 -0.24552882 -0.44326004
-0.4668452 -0.14810012 -0.10665523 -0.021219604 -0.3296591 -0.26971188 -0.2573741 -0.34242323
-0.30925786 -0.38318172 -0.24578601 -0.55609 -0.4194869 -0.42145273 -0.5591825 -0.25889942
0.3423731 0.4039605 0.19135566 0.64653397 0.20425777 0.7982534 0.49480957 0.8794845
0.75493515 0.42831308 0.38022682 0.73070854 1.2280893 0.16845113 0.55100137 0.46266383
0.22958428 0.5553763 0.21335249 0.13022546 0.08887635 0.013945186 0.62853503 0.035257835
0.4339 0.73577625 0.16718516 0.21767655 0.3365176 0.53240913 0.59574944 0.58466524
0.05188674 0.61147684 0.85436946 0.24989896 0.31301972 0.23099162 0.3610316 0.4311907
0.77690744 0.5925842 0.36795738 0.026185824 0.2742242 0.27926484 0.15288803 0.42955515
0.2442851 0.70097643 0.2445614 0.79067206 0.23990746 0.5459612 0.7912176 0.084523454
0.6554501 0.36711985 0.52680963 0.5624847 0.3486566 0.2572397 0.3799325 0.3193383
0.27850184 0.4653918 0.5011468 0.09604225 1.4423673 0.45122734 0.35360628 0.5823597
0.39542124 0.58241343 0.59811825 0.5537572 0.465673 0.5188766 0.3018272 1.2634238
0.23254572 0.3960608 0.5195082 0.6483844 0.64800674 0.5855822 0.18253031 0.64156675
0.19945379 0.3562528 0.07872884 0.27502277 0.34289888 0.52017707 0.53855366 0.579638
0.56960934 0.4526697 0.1392547 0.41200316 0.19679852 0.098959304 0.17224869 0.18559046
0.5084783 0.43957976 0.3432753 0.5650351 0.47008836 0.98573446 0.42024836 0.6490405
0.6698624 0.51200753 0.18742864 0.3415732 0.29896772 0.16968049 0.37511152 0.6235028
0.20429942 0.49515924 0.2937454 0.4745221 0.510925 0.3104627 0.30936223 0.28301388

tfl.pseudo_qconst i1 [512, 8]
00000000: 97d7 a481 ecd9 1805 8381 f8cb 09d2 0ef4
00000010: 019d 10fc 0f81 03d7 cdd5 7f5f 03ee fef3
00000020: 4926 4b47 0c81 e3b8 d7d8 c4c3 8112 f809
00000030: 81a6 f1cb d310 04f0 9781 bab6 e3ee 0004
00000040: b5c1 bcbf 81e9 0f01 a0aa 8182 1ced 0bc7
00000050: c581 98d0 e7ef fcda b5b5 8198 dbee f2e0
00000060: b681 c4b5 e7ed 0a15 81a8 21eb 0e9d e30f
00000070: a0bb 8881 e4df 12f6 85cd ae81 9fcd ed21
00000080: b381 6c51 fcba fa0a be81 ece2 c7eb fb02
00000090: c081 fede 06f4 0f2f a0ad 819d 1ce1 0403
000000a0: d4df 8184 dcee 0d2c d381 de8c ca86 3d14
000000b0: a181 d1a0 15c8 060d 819c 6b0b 11c7 da66
000000c0: 8481 969e cbe1 f50f 818f f1d4 19f7 f602
000000d0: 8193 ddec dfea f155 9ecd 819e ceec e2e6
000000e0: ac90 0217 8194 e0f1 a281 d4b5 d8dc fdec
000000f0: d2c7 dae7 81e6 fae4 a981 fced edc2 f3ee
-105 -41 -92 -127 -20 -39 24 5
-125 -127 -8 -53 9 -46 14 -12
1 -99 16 -4 15 -127 3 -41
-51 -43 127 95 3 -18 -2 -13
73 38 75 71 12 -127 -29 -72
-41 -40 -60 -61 -127 18 -8 9
-127 -90 -15 -53 -45 16 4 -16
-105 -127 -70 -74 -29 -18 0 4
-75 -63 -68 -65 -127 -23 15 1
-96 -86 -127 -126 28 -19 11 -57
-59 -127 -104 -48 -25 -17 -4 -38
-75 -75 -127 -104 -37 -18 -14 -32
-74 -127 -60 -75 -25 -19 10 21
-127 -88 33 -21 14 -99 -29 15
-96 -69 -120 -127 -28 -33 18 -10
-123 -51 -82 -127 -97 -51 -19 33
-77 -127 108 81 -4 -70 -6 10
-66 -127 -20 -30 -57 -21 -5 2
-64 -127 -2 -34 6 -12 15 47
-96 -83 -127 -99 28 -31 4 3
-44 -33 -127 -124 -36 -18 13 44
-45 -127 -34 -116 -54 -122 61 20
-95 -127 -47 -96 21 -56 6 13
-127 -100 107 11 17 -57 -38 102
-124 -127 -106 -98 -53 -31 -11 15
-127 -113 -15 -44 25 -9 -10 2
-127 -109 -35 -20 -33 -22 -15 85
-98 -51 -127 -98 -50 -20 -30 -26
-84 -112 2 23 -127 -108 -32 -15
-94 -127 -44 -75 -40 -36 -3 -20
-46 -57 -38 -25 -127 -26 -6 -28
-87 -127 -4 -19 -19 -62 -13 -18

tfl.pseudo_qconst1 i1 [512, 128]
00000000: 2fcb 0deb 3bed d2e4 67ea 295f 4c08 2e02
00000010: 1c06 f707 eeed 0fa6 d9ec fe09 0c13 0dea
00000020: 3c50 fc14 2239 2be5 df35 6ee7 1337 f6cf
00000030: 42ef cd03 02fe c72c 38d5 ca2a 1fea 16dc
00000040: 3040 ddf2 abef 17f9 cce7 be21 1514 2412
00000050: 4a00 143a 31c3 1eff 1ed8 5566 eedf e9f6
00000060: aa5d bace 342a 09b2 df13 cae2 fd7f c7f9
00000070: 5a14 28fc f0f4 1ad1 e9ff 32fe b91e f1e6
00000080: fc02 fe06 1e11 ecd2 19f9 0bf3 f010 1af7
00000090: eee2 fa11 fe22 00e7 06f2 eafc f1f1 0ef7
000000a0: 26fd 1c03 f41f 1408 edec f7e9 f1d6 14d7
000000b0: f200 f62b 0a17 18f2 fdff 1126 f620 07fc
000000c0: f007 0ff9 88d7 0924 1c16 10ee fbe0 0a7f
000000d0: 08fe f11d 2300 fd04 05e6 1407 0016 f011
000000e0: 00ea de04 22dc d304 fa14 0f04 085a 100a
000000f0: e41e 0ae3 1608 dc26 0ff2 0af2 daf8 18ee
47 -53 13 -21 59 -19 -46 -28
103 -22 41 95 76 8 46 2
28 6 -9 7 -18 -19 15 -90
-39 -20 -2 9 12 19 13 -22
60 80 -4 20 34 57 43 -27
-33 53 110 -25 19 55 -10 -49
66 -17 -51 3 2 -2 -57 44
56 -43 -54 42 31 -22 22 -36
48 64 -35 -14 -85 -17 23 -7
-52 -25 -66 33 21 20 36 18
74 0 20 58 49 -61 30 -1
30 -40 85 102 -18 -33 -23 -10
-86 93 -70 -50 52 42 9 -78
-33 19 -54 -30 -3 127 -57 -7
90 20 40 -4 -16 -12 26 -47
-23 -1 50 -2 -71 30 -15 -26
-4 2 -2 6 30 17 -20 -46
25 -7 11 -13 -16 16 26 -9
-18 -30 -6 17 -2 34 0 -25
6 -14 -22 -4 -15 -15 14 -9
38 -3 28 3 -12 31 20 8
-19 -20 -9 -23 -15 -42 20 -41
-14 0 -10 43 10 23 24 -14
-3 -1 17 38 -10 32 7 -4
-16 7 15 -7 -120 -41 9 36
28 22 16 -18 -5 -32 10 127
8 -2 -15 29 35 0 -3 4
5 -26 20 7 0 22 -16 17
0 -22 -34 4 34 -36 -45 4
-6 20 15 4 8 90 16 10
-28 30 10 -29 22 8 -36 38
15 -14 10 -14 -38 -8 24 -18

arith.constant27 f4 [256]
00000000: 4d14 d43e 4a8d e13e f1f6 b2be 9626 03bf
00000010: 7f17 793e d496 17be 1283 96be 63b8 ff3d
00000020: 4540 4abe 2183 b8be d182 4c3d 5cbe 76be
00000030: 1dda 8b3e 4076 25be f7e5 b6be fb73 463e
00000040: d9dd 7abe 487d d8be 542b f7be 14d9 0fbc
00000050: 7627 0fbd f6b3 34be 9b23 bcbb d04c 5c3e
00000060: 334b 22be 4273 56bd d4f2 a8be f36a ec3d
00000070: af56 423d 9acf 03be 5b6e 3fbe 1d16 d8bd
00000080: 7e56 05bf 3842 f13d 6fdf 25bd aed7 c6bd
00000090: 6791 053d 1aa4 8cbe a6dc 64be 2665 203e
000000a0: c3f5 d6be 46c1 c5be 64fc 293e 2c7f b43e
000000b0: 419e ce3b 72e1 483d 50e0 1ebe e371 63bd
000000c0: 08b1 8bbe cc36 94bd fe12 fcbb ff05 9ebe
000000d0: 690f 8d3c 5147 4abe 3f8e 7e3e 743f 223d
000000e0: 6ba9 aabe bcb9 853b 2940 843e bec2 3a3d
000000f0: ac1f 043f 089c 07be 3fc4 c5bd 7cff f2be
00000100: 1da5 903f a3b7 2f3f ad03 f73e f645 823f
00000110: 19c3 813f 4eec 673f 1c9f 793f cc74 8f3f
00000120: b481 f63e fa4f a33f 0572 4e3f 7ed9 903f
00000130: 0268 9b3f 30f9 873f ffb0 8e3f 177d ac3f
00000140: 6cd1 813f 9a53 473f 96c5 413f 23c3 293f
00000150: 74ce b83e 6f82 833f 5183 943f 815c 8c3f
00000160: da60 763f 9b54 793f 8a05 743f a4b8 913f
00000170: 38fc 9b3f 7d58 5c3f 3c11 8d3f e903 8c3f
00000180: 1330 873f c934 3b3f 501a 8d3f bbbe 883f
00000190: c698 773f 3d3f 613f 8fc0 613f 74e6 2d3f
000001a0: a99c 443f 7f41 583f 5c96 9a3f f1bb 5d3f
000001b0: c4fe a33f 2849 603f 72f3 683f 6252 443f
000001c0: 5e53 633f 5bd7 983f 684d 633f 5bc4 7f3f
000001d0: e248 153f e20f 5f3f 2ce9 743f 0298 883f
000001e0: 905d ab3f 344c 573f 1c61 8c3f 1b02 843f
000001f0: a8ef 0f3f 3167 483f 6397 753f e949 0b3f
00000200: b444 0fbe 91d7 143e 7af1 3b3d 57ee 04bf
00000210: c51c db3d d5ea 2e3d 4f86 09be 33af cbbd
00000220: b9c0 b3be 1917 c63e af91 813e c351 bdbe
00000230: b786 1fbe f1b5 ee3d 9129 5ebe 7b98 e83c
00000240: 18c2 983d ef80 56be 0c23 2a3e 993f 9d3e
00000250: fb81 69be f701 49be 8b78 363e de2c f8bb
00000260: 40b2 6cbe 169d 2f3e 05ed 4b3e ba83 793e
00000270: 0573 1e3e 2d93 953d 3c7e 9c3e c9ad 8d3e
00000280: 4e04 23be dd6f b4bd 13b0 8abb bef7 adbd
00000290: 5a51 983d 89f4 6b3e 3390 823e 2729 92be
000002a0: 7303 2d3e 88ff ecbd 0931 fc3d 47cd 05be
000002b0: 7817 833e 1fa1 193c 898d bfbb 222c 9c3d
000002c0: 69ea 913e 2215 363d e933 78bd 00b8 253d
000002d0: 6b4f ef3c a744 863e 935d 513e ceb4 babc
000002e0: 857b ce3d d96a 063e 7611 d9bd 5eeb 32bd
000002f0: 7704 0d3e e818 44be faa8 c3be cf9e 5fbd
00000300: 04d6 d0bd e1b9 8dbd adf7 bcbe abc8 d8be
00000310: 4c2e 7cbd c2f1 573e f143 94be 83e9 d53c
00000320: 0608 993d 48d7 363e 1221 eebe cfe2 16be
00000330: 88e2 cfbe 587d 69be c101 7f3e 9120 8b3e
00000340: 021b 59bd 1ea5 f4bd 6371 15be 931a ab3d
00000350: b486 b0bd f0c6 0fbf b3ce 803e 8d70 2bbe
00000360: ab95 5ebf 09c0 64be ea7d 52bf 6c8a 23bf
00000370: 0c76 813d 87aa 05be aec7 b93d e9c9 ffbc
00000380: 003d 9ebe 6c98 2abf e4aa f1be 0dd5 6ebe
00000390: e1d9 dfbe f396 103c 5b8a 72be 1660 00be
000003a0: 1ac4 48be d3b3 8cbe 06b8 48bd 71fa d83e
000003b0: 11c2 6ebd b327 64be de42 b6be 1eeb 13bf
000003c0: a374 32be e691 ebbd 91a1 09be 36e0 d7bd
000003d0: aba5 b23c d84f bbbe 13ab 553e 3689 a0be
000003e0: 667d c13e dbfa d0bd 17a9 66be 06c9 4cbe
000003f0: c103 0d3f c473 5dbe 8a64 d23e 4f59 06bf
0.41421738 0.44053108 -0.34954026 -0.5123075 0.2432537 -0.1480363 -0.29396874 0.12486341
-0.1975108 -0.36037543 0.049929444 -0.24096054 0.27314845 -0.1615839 -0.35722324 0.1938018
-0.2449869 -0.42283082 -0.48275244 -0.008779783 -0.034949742 -0.17646775 -0.005741549 0.21513677
-0.15848999 -0.052356012 -0.32997763 0.115438364 0.04744595 -0.12872162 -0.18694441 -0.10551093
-0.520851 0.11780208 -0.040496286 -0.097091064 0.03260937 -0.2746895 -0.22349796 0.15663585
-0.41984376 -0.38624018 0.16600186 0.35253274 0.0063054864 0.049043126 -0.15515256 -0.055528533
-0.27283502 -0.07237014 -0.0076926937 -0.3086395 0.017219262 -0.19753768 0.2485895 0.039611295
-0.3333238 0.004080979 0.258302 0.045595877 0.5161083 -0.13243115 -0.096565716 -0.47460544
1.1300389 0.6863958 0.48244992 1.01776 1.0137664 0.9059495 0.97508407 1.1207519
0.4814583 1.2758782 0.8064273 1.1316373 1.2141116 1.0622921 1.1147765 1.3475674
1.0142035 0.7786194 0.7569212 0.6631338 0.3609501 1.027418 1.1602575 1.096573
0.96241534 0.9739472 0.9532095 1.1384473 1.2186346 0.8607252 1.1020885 1.0938693
1.0561546 0.7312742 1.1023655 1.0683206 0.9671749 0.8798712 0.88184446 0.6792977
0.76801544 0.8447494 1.2077136 0.866149 1.2812123 0.8761163 0.9099647 0.76688206
0.88799083 1.1940721 0.8878999 0.9990899 0.58314335 0.8713361 0.9566829 1.0671389
1.3387928 0.8410065 1.0967135 1.0313143 0.5622506 0.7828246 0.9593412 0.5440965
-0.13991052 0.14535357 0.045884587 -0.5192618 0.10698847 0.042704422 -0.13430141 -0.09945526
-0.35107973 0.38689497 0.2530646 -0.36976442 -0.15578733 0.11655796 -0.21695544 0.02839302
0.074588954 -0.20947622 0.16614932 0.30712584 -0.2280349 -0.19629656 0.17819421 -0.007573708
-0.23114872 0.17149767 0.19914635 0.24366656 0.15473564 0.07303462 0.3056506 0.2767165
-0.15919611 -0.08810399 -0.0042324155 -0.08494519 0.074373916 0.23042502 0.2550064 -0.28547022
0.16895847 -0.11572176 0.1231404 -0.13066588 0.25603843 0.009376793 -0.0058457297 0.07625605
0.28499153 0.044453748 -0.06059638 0.04045868 0.029212674 0.26224253 0.20445852 -0.022791293
0.10082153 0.13126697 -0.105990335 -0.043681495 0.13771234 -0.19150126 -0.38214856 -0.05459481
-0.1019707 -0.06920219 -0.36907712 -0.42340598 -0.06156759 0.21088317 -0.28958085 0.026112324
0.074722335 0.17855561 -0.46509606 -0.14734958 -0.40602517 -0.22801721 0.24903013 0.27173284
-0.053004272 -0.11945556 -0.14594035 0.08354678 -0.086194426 -0.5616293 0.251577 -0.16742153
-0.86947125 -0.2233888 -0.8222338 -0.6388309 0.06321344 -0.13053332 0.09071289 -0.031224208
-0.30905914 -0.6663883 -0.47200692 -0.2332346 -0.43720916 0.008825052 -0.23685591 -0.12536654
-0.19606057 -0.27480945 -0.049003623 0.42378572 -0.058290545 -0.22280769 -0.3559789 -0.57780635
-0.17427306 -0.11502437 -0.13440539 -0.10540812 0.021807512 -0.36584353 0.20866041 -0.31354684
0.37790984 -0.10204097 -0.2252544 -0.1999856 0.55083853 -0.21626192 0.4109233 -0.52480024

tfl.pseudo_qconst2 i1 [256, 128]
00000000: dedc 1d96 1966 06f0 4be1 293f fc00 4de9
00000010: e7e7 f72d f508 1309 080d f0f7 0251 2eb3
00000020: e802 33e6 04d5 dde0 c21c 1627 1006 d84f
00000030: e7f4 a9d5 04e1 d117 2ed7 150d 02f1 dfc4
00000040: d9ff 01fd c595 412d 64c1 d8b4 04da 1a4a
00000050: c534 0120 02f6 8e04 0181 05de dde5 16d7
00000060: fe3e ec0e c293 0ee1 06c4 461a f209 e10f
00000070: d4e5 e3f3 e33e d146 24e1 08c7 15ef c6da
00000080: eb37 e1fb 431b d8e8 3ee9 f700 e80c 31e5
00000090: e100 59f1 cc28 faf0 10fd d947 1414 1a9e
000000a0: 2741 2fe3 14f7 0410 31ea 240c 07c6 10d7
000000b0: 0b05 cc3c 08dd fdf9 e0d6 0fea fbf7 ece8
000000c0: 2807 fdf2 0581 1ff2 f8e5 17f7 022c f6eb
000000d0: 3c09 ec14 12e0 f9de e7ea e218 c520 1af5
000000e0: e806 c6f3 0bb7 e0e5 0ed6 19f4 f2ad f307
000000f0: ee13 e405 21f7 bd10 dbef 2bf9 091c ddcf
-34 -36 29 -106 25 102 6 -16
75 -31 41 63 -4 0 77 -23
-25 -25 -9 45 -11 8 19 9
8 13 -16 -9 2 81 46 -77
-24 2 51 -26 4 -43 -35 -32
-62 28 22 39 16 6 -40 79
-25 -12 -87 -43 4 -31 -47 23
46 -41 21 13 2 -15 -33 -60
-39 -1 1 -3 -59 -107 65 45
100 -63 -40 -76 4 -38 26 74
-59 52 1 32 2 -10 -114 4
1 -127 5 -34 -35 -27 22 -41
-2 62 -20 14 -62 -109 14 -31
6 -60 70 26 -14 9 -31 15
-44 -27 -29 -13 -29 62 -47 70
36 -31 8 -57 21 -17 -58 -38
-21 55 -31 -5 67 27 -40 -24
62 -23 -9 0 -24 12 49 -27
-31 0 89 -15 -52 40 -6 -16
16 -3 -39 71 20 20 26 -98
39 65 47 -29 20 -9 4 16
49 -22 36 12 7 -58 16 -41
11 5 -52 60 8 -35 -3 -7
-32 -42 15 -22 -5 -9 -20 -24
40 7 -3 -14 5 -127 31 -14
-8 -27 23 -9 2 44 -10 -21
60 9 -20 20 18 -32 -7 -34
-25 -22 -30 24 -59 32 26 -11
-24 6 -58 -13 11 -73 -32 -27
14 -42 25 -12 -14 -83 -13 7
-18 19 -28 5 33 -9 -67 16
-37 -17 43 -7 9 28 -35 -49

tfl.pseudo_qconst3 i1 [256, 64]
00000000: 27c4 2f27 bf02 3b23 b9f1 ff2b b7df 20ed
00000010: e816 1c43 5e97 e621 c9c5 415d c946 cd12
00000020: af12 8bda ed3a c73a 0f19 f5c2 1014 7fda
00000030: dc1c fc47 2342 f819 4c25 e49e 3be4 6976
00000040: 061e f5e8 00e1 d104 211a 09f1 eccf 3fbe
00000050: 2f2a 33e2 f4e5 0148 e0e1 0fe2 ec04 c0fc
00000060: 29ec fe19 810f 110b 110b 2cfc fd1a ed1b
00000070: f707 6109 e821 f116 2dea d5f0 ccbf 01c9
00000080: c9ed 0fc4 0ec2 dc56 e230 0bd6 3df8 1c13
00000090: d126 f117 26d5 040f 0ac6 0e0d 10d0 f810
000000a0: eb81 f20e e3f5 5bff faeb e3f8 013b e312
000000b0: 02e0 e11d 3c1f bc23 f60b 72ca 25e7 6640
000000c0: 29c2 09c7 cd0a 1ad2 e9f6 2fc7 4efb 2811
000000d0: b316 0a33 2502 8125 d23e 1917 d8ef f2bb
000000e0: f9ba 2ac4 db4c e9f9 1e9a f3bb aefe 3b1b
000000f0: 0951 fb34 5c2d aaba c8cb 1c5a 7eb7 c4e2
39 -60 47 39 -65 2 59 35
-71 -15 -1 43 -73 -33 32 -19
-24 22 28 67 94 -105 -26 33
-55 -59 65 93 -55 70 -51 18
-81 18 -117 -38 -19 58 -57 58
15 25 -11 -62 16 20 127 -38
-36 28 -4 71 35 66 -8 25
76 37 -28 -98 59 -28 105 118
6 30 -11 -24 0 -31 -47 4
33 26 9 -15 -20 -49 63 -66
47 42 51 -30 -12 -27 1 72
-32 -31 15 -30 -20 4 -64 -4
41 -20 -2 25 -127 15 17 11
17 11 44 -4 -3 26 -19 27
-9 7 97 9 -24 33 -15 22
45 -22 -43 -16 -52 -65 1 -55
-55 -19 15 -60 14 -62 -36 86
-30 48 11 -42 61 -8 28 19
-47 38 -15 23 38 -43 4 15
10 -58 14 13 16 -48 -8 16
-21 -127 -14 14 -29 -11 91 -1
-6 -21 -29 -8 1 59 -29 18
2 -32 -31 29 60 31 -68 35
-10 11 114 -54 37 -25 102 64
41 -62 9 -57 -51 10 26 -46
-23 -10 47 -57 78 -5 40 17
-77 22 10 51 37 2 -127 37
-46 62 25 23 -40 -17 -14 -69
-7 -70 42 -60 -37 76 -23 -7
30 -102 -13 -69 -82 -2 59 27
9 81 -5 52 92 45 -86 -70
-56 -53 28 90 126 -73 -60 -30

arith.constant31 f4 [128]
00000000: 4422 e6be 3be8 27bf c415 a63d e0ea cd3b
00000010: f784 80be 348b 8a3d 85e0 1abf 21a0 36bf
00000020: 6845 52bf 6c5c 55bb f184 4a3e 7d3f 10bf
00000030: c47a 8ebd ab4a 51be e3f3 c93e 3f5d c6be
00000040: f293 febe 9f11 94be 99d5 debe 7002 cabe
00000050: 5e88 42bf cfbe d3bc 5b08 0dbf 6885 fe3d
00000060: 6d7a 0dbe f06f c63e 22fc b8be cfb2 c4be
00000070: 2386 90be 978d 27bf 3f60 d33d 2894 bdbe
00000080: e0f3 963f 27e5 813f 5b54 ef3e d96f b43e
00000090: 3002 df3e e73c 2a3f af87 963f a837 653f
000000a0: c99a 923f 41e2 253f 508d b73e 5c88 963f
000000b0: cb02 2c3f 442c 7e3f ca2a 0f3f 8f42 8f3f
000000c0: edfd 993f f918 683f 64ba 823f 644d 9b3f
000000d0: 98a9 ec3e 0928 0f3f 9227 8f3f 1f85 603f
000000e0: c7d8 253f 2836 433f 1639 5b3f 9ddb 393f
000000f0: f9b9 7d3f 804c 813f d991 533f 0745 7a3f
00000100: f7c8 093d 8a7d 1b3d 7655 7bbe dd2e d03d
00000110: 0328 933d 77e8 093d db51 093c ac34 b8bc
00000120: 95f4 933d 94e2 bfbd afa3 afbd b382 7039
00000130: 7a22 983d a541 3d3e 27fc 47bd 79ed 08bd
00000140: f43b ecbb 847a 1bbe a7b4 103d 4c7a 933b
00000150: ad90 42be 058a 75be 8729 1cbc d63c 863e
00000160: 7396 98bc d955 babd 0fad 41bd f6bb fabc
00000170: f1e7 9b3c 64c2 443d 505e 00be b209 d6bd
00000180: d071 223e c59c b53e c0ac d03e 374a 97ba
00000190: a2ca 37bf 8266 a33c f153 ad3e b729 b43e
000001a0: df86 ad3d 952f 983d 3e17 983e 91a0 80be
000001b0: b569 a8bd c53a 2fbe 7bba eb3e ccd3 8abe
000001c0: 7416 993e b43b fdbd dc2b 0b3e 054a e33d
000001d0: 2867 fbbe 4dd5 1c3e df3b c43d c3bf b73c
000001e0: c4b8 6bbe 2869 643e d9c3 5abf 89e0 1abf
000001f0: c555 ed3c b5c9 213c beec 6e3e 166e 263c
-0.44948018 -0.6558873 0.0810962 0.006284103 -0.25101444 0.06764832 -0.6049884 -0.7133809
-0.82137156 -0.0032556308 0.19777276 -0.56346875 -0.069570094 -0.2043864 0.39443883 -0.38743016
-0.49722248 -0.28919694 -0.43522337 -0.39454985 -0.7598933 -0.02584782 -0.55090874 0.12427789
-0.13816233 0.38757277 -0.36129862 -0.3841767 -0.28227338 -0.65450424 0.10321092 -0.37027097
1.1793175 1.0148057 0.46744046 0.35241583 0.43556356 0.6649918 1.1760157 0.8953805
1.1453487 0.6479836 0.3585 1.1760364 0.6719176 0.99286294 0.55924666 1.1192187
1.2030617 0.90663105 1.0213132 1.2132993 0.4622314 0.55920464 1.1183951 0.87703127
0.647839 0.7625451 0.8563398 0.7260073 0.99111897 1.0101471 0.8264442 0.9776158
0.03363892 0.03796152 -0.2454432 0.101651885 0.07185366 0.03366896 0.008381332 -0.022486053
0.07224385 -0.09369388 -0.08576142 0.00022936873 0.07428451 0.18482073 -0.048824456 -0.033429597
-0.0072092954 -0.15183455 0.035328534 0.004500663 -0.19000502 -0.23978432 -0.009531385 0.2621829
-0.018626427 -0.090984054 -0.047284182 -0.030607205 0.019031497 0.048036948 -0.12535977 -0.10451068
0.15863729 0.35471168 0.40756798 -0.0011542503 -0.7179357 0.01994634 0.33853105 0.35188076
0.0847299 0.074309506 0.29705232 -0.25122502 -0.08223287 -0.17112263 0.4604071 -0.27114713
0.29899943 -0.12364903 0.1359095 0.110981025 -0.4910214 0.15315743 0.09581732 0.022430306
-0.23019701 0.22305739 -0.8545509 -0.60498863 0.028971562 0.009874751 0.23332497 0.0101580825

tfl.pseudo_qconst4 i1 [128, 64]
00000000: 4a4c 4529 28e9 fe43 e1f9 0dfb cfe1 28e4
00000010: a25a 5ebf c71d bae3 77ac b6a2 a95e 8cea
00000020: 02f0 16d9 bf3e 197f 0d03 ea01 ee0d dc25
00000030: ce1e fd39 ec25 343a 1abb 0e7f e3c4 07c9
00000040: 2ef3 21e3 26fd f175 fe20 14e3 08ab e3fb
00000050: 067f 0e65 fd2d 06fc 1e90 d1c8 cbd7 a63b
00000060: d6ba 1615 e6f7 f772 32f7 dbeb dd07 f211
00000070: 22eb 1a77 e24a ed57 f0ab 2d05 efe9 e6ec
00000080: 9921 e8ed 4bf8 421b 0efe 22da 24e6 ac21
00000090: af09 ef08 130f b429 a1fb 6a3a 2cc3 05eb
000000a0: 02d5 21fa 065b 1fb6 f73d 2200 bac8 fdc2
000000b0: d9ed da01 15ef f221 2344 1a81 120f c4b1
000000c0: cdc6 2f52 f00f c828 0dd6 d825 265f 3fc0
000000d0: e52a e1dc 4cfe 121c ed1e 2626 e91e cb15
000000e0: 19c1 efa0 3ebc 1bf9 de81 c6d1 bffe 13ca
000000f0: f0e0 ef40 17ce f802 0221 42c3 5c5a 1d49
74 76 69 41 40 -23 -2 67
-31 -7 13 -5 -49 -31 40 -28
-94 90 94 -65 -57 29 -70 -29
119 -84 -74 -94 -87 94 -116 -22
2 -16 22 -39 -65 62 25 127
13 3 -22 1 -18 13 -36 37
-50 30 -3 57 -20 37 52 58
26 -69 14 127 -29 -60 7 -55
46 -13 33 -29 38 -3 -15 117
-2 32 20 -29 8 -85 -29 -5
6 127 14 101 -3 45 6 -4
30 -112 -47 -56 -53 -41 -90 59
-42 -70 22 21 -26 -9 -9 114
50 -9 -37 -21 -35 7 -14 17
34 -21 26 119 -30 74 -19 87
-16 -85 45 5 -17 -23 -26 -20
-103 33 -24 -19 75 -8 66 27
14 -2 34 -38 36 -26 -84 33
-81 9 -17 8 19 15 -76 41
-95 -5 106 58 44 -61 5 -21
2 -43 33 -6 6 91 31 -74
-9 61 34 0 -70 -56 -3 -62
-39 -19 -38 1 21 -17 -14 33
35 68 26 -127 18 15 -60 -79
-51 -58 47 82 -16 15 -56 40
13 -42 -40 37 38 95 63 -64
-27 42 -31 -36 76 -2 18 28
-19 30 38 38 -23 30 -53 21
25 -63 -17 -96 62 -68 27 -7
-34 -127 -58 -47 -65 -2 19 -54
-16 -32 -17 64 23 -50 -8 2
2 33 66 -61 92 90 29 73

tfl.pseudo_qconst5 i1 [128, 32]
00000000: 2dda 1a05 f992 0a2c 35e7 16da 1612 1159
00000010: 2ac1 5a1c 7231 2381 0c62 150b e9f3 1af8
00000020: 25dd d581 61dc ee10 edf9 6803 d5be 2bc8
00000030: 01e5 320f 5911 13b7 0c06 2bfa fd22 fe19
00000040: 1210 e2e0 1022 ebf7 1545 224a 0b05 36d4
00000050: 097f f216 14ed 0b5d 08e9 22e1 050b 0c01
00000060: 14ed 0f0b bdfd f518 0ed0 e4b2 e0ff 26ee
00000070: f1c9 1507 2cca 39fd 0024 fa7f d9f3 1bc5
00000080: 29d7 d8f9 e61d f92f 1bed eff0 fdef 12ef
00000090: 18f0 0707 d2e2 7fe6 ef27 e61d f2cc 16e4
000000a0: 1603 f108 1522 f9f8 18fb a9e7 0af6 d3db
000000b0: f808 201f df4e 3cfb 277f f6ec ded5 2bd0
000000c0: cb18 84d5 9491 6b32 2103 0e02 29b6 c40d
000000d0: 245a fe75 081c 7f69 0f10 2b02 9f78 6ee6
000000e0: 23f3 e909 fc3a 06f9 ef0e 0c04 fac3 f1f6
000000f0: 1bcd fecf 227f 18bd 0c2b 1227 3823 ede4
45 -38 26 5 -7 -110 10 44
53 -25 22 -38 22 18 17 89
42 -63 90 28 114 49 35 -127
12 98 21 11 -23 -13 26 -8
37 -35 -43 -127 97 -36 -18 16
-19 -7 104 3 -43 -66 43 -56
1 -27 50 15 89 17 19 -73
12 6 43 -6 -3 34 -2 25
18 16 -30 -32 16 34 -21 -9
21 69 34 74 11 5 54 -44
9 127 -14 22 20 -19 11 93
8 -23 34 -31 5 11 12 1
20 -19 15 11 -67 -3 -11 24
14 -48 -28 -78 -32 -1 38 -18
-15 -55 21 7 44 -54 57 -3
0 36 -6 127 -39 -13 27 -59
41 -41 -40 -7 -26 29 -7 47
27 -19 -17 -16 -3 -17 18 -17
24 -16 7 7 -46 -30 127 -26
-17 39 -26 29 -14 -52 22 -28
22 3 -15 8 21 34 -7 -8
24 -5 -87 -25 10 -10 -45 -37
-8 8 32 31 -33 78 60 -5
39 127 -10 -20 -34 -43 43 -48
-53 24 -124 -43 -108 -111 107 50
33 3 14 2 41 -74 -60 13
36 90 -2 117 8 28 127 105
15 16 43 2 -97 120 110 -26
35 -13 -23 9 -4 58 6 -7
-17 14 12 4 -6 -61 -15 -10
27 -51 -2 -49 34 127 24 -67
12 43 18 39 56 35 -19 -28
